model/model_snake.pth (torch, 16176 bytes, 4 tensors)

linear1.weight f4 [236, 11]
0	0xbe8a8954	-0.27057898
1	0x3df5ba37	0.11998408
2	0xbd4bf679	-0.0497956
3	0xbe44545e	-0.19172809
4	0x3e8f4940	0.27985573
5	0xbcd81366	-0.026376437
6	0xbc1346e3	-0.008989069
7	0xbd4dc828	-0.050239712
8	0x3e7a3058	0.24432504
9	0x3dfd1e88	0.12359339
10	0xbe82a52c	-0.2551664
11	0xbd81a741	-0.06330729
12	0x3e2f19e9	0.17099728
13	0x3d5e8bb1	0.05433244
14	0xbe35cd43	-0.17754082
15	0x3e276798	0.16348112
16	0x3e7a596c	0.24448174
17	0x3e4b56a5	0.19857271
18	0xbe61dabd	-0.22056098
19	0xbce35923	-0.027752465
20	0xbd8624a1	-0.06549955
21	0x3e2fe3ad	0.17176695
22	0xbe935218	-0.2877357
23	0x3e1d2f10	0.15349984
24	0x3ded41b4	0.115847975
25	0x3e2648ce	0.1623871
26	0xbc7f2dc0	-0.0155748725
27	0xbe1d4be5	-0.15360983
28	0x3e3e3ddd	0.18578286
29	0xbe807085	-0.25085846
30	0xba594cb5	-0.00082893233
31	0xbe8c5598	-0.27409053
32	0xbd0497ad	-0.03237121
33	0xbe73e4cd	-0.2381775
34	0xbe947030	-0.28991842
35	0x3e828839	0.25494555
36	0x3e950c3e	0.29110903
37	0xbcd18263	-0.025574869
38	0x3d92bc34	0.07164803
39	0x3e80a475	0.2512547
40	0x3e122e19	0.14275397
41	0x3d69f62f	0.057119545
42	0x3e2fa9fc	0.17154688
43	0xbd84e8fc	-0.06489751
44	0x3e11f264	0.14252621
45	0xbe244860	-0.16043234
46	0x3e6e5c37	0.23277365
47	0xbe9697c0	-0.2941265
48	0xbe81aba3	-0.2532626
49	0xbe10c718	-0.14138448
50	0x3e7e4ea7	0.24834691
51	0xbccdbcba	-0.025114406
52	0xbd400826	-0.04688277
53	0x3e9539a5	0.29145542
54	0x3e519ab6	0.20469174
55	0x3e3b8300	0.18311691
56	0x3d9a3642	0.0752988
57	0xbe5cffdc	-0.21581978
58	0xbe1477f5	-0.14498885
59	0xbe9a2438	-0.30105758
60	0x3dfdd487	0.12394052
61	0x3e50adff	0.20378874
62	0xbe909d34	-0.28244936
63	0x3e84c6a0	0.2593279
64	0xbcaa692e	-0.020802107
65	0xbdcd1716	-0.10014169
66	0xbe34dade	-0.17661616
67	0xbde18764	-0.11012152
68	0xbd68bcae	-0.056820564
69	0xbe766351	-0.24061324
70	0xbe8fc51d	-0.28080073
71	0x3e988187	0.29786322
72	0xbcd062c9	-0.02543773
73	0xbd75a466	-0.059971236
74	0x3e880763	0.26568136
75	0xbe376b6d	-0.17912073
76	0x3e7adca2	0.24498227
77	0xbe95d21e	-0.2926187
78	0xbdacae68	-0.08431703
79	0xbe185194	-0.1487487
80	0x3e98d407	0.29849264
81	0x3df0cbeb	0.11757644
82	0x3d9c365a	0.07627554
83	0xbe101074	-0.14068776
84	0xbe04b00f	-0.12957786
85	0xbe97c552	-0.2964273
86	0x3e8ae49c	0.2712754
87	0xbdb3c03a	-0.08776899
88	0xbe042e9c	-0.12908405
89	0x3e51ca77	0.2048739
90	0x3ca88fed	0.020576442
91	0xbe2f782b	-0.17135684
92	0xbe949964	-0.29023278
93	0xbe8ab450	-0.27090693
94	0xbd6b2284	-0.057405964
95	0x3c5b4b4d	0.013384652
96	0xbe72a693	-0.23696356
97	0xbe7d9714	-0.24764663
98	0x3e843f57	0.25829574
99	0x3d5dba26	0.054132603
100	0xbe7a4a17	-0.24442326
101	0x3bb7c373	0.005608016
102	0x3d055cdf	0.032559272
103	0x3d56ebb8	0.052470893
104	0x3e7dbeec	0.24779862
105	0xbe393e3d	-0.18090148
106	0xbe963f73	-0.29345283
107	0x3e862143	0.26197252
108	0x3d70b5bb	0.05876706
109	0x3e10ac31	0.14128186
110	0xbe96eca5	-0.2947742
111	0xbd4681f7	-0.048463788
112	0x3e394fe6	0.18096885
113	0xbe581944	-0.21103388
114	0xbe065a10	-0.13120294
115	0xbdace696	-0.08442418
116	0x3dd7b0d7	0.105317764
117	0x3e1f3d27	0.15550672
118	0xbe9640e9	-0.29346398
119	0x3e869100	0.262825
120	0xbe1b55bd	-0.15169425
121	0xbe9962d2	-0.29958206
122	0xbdd13394	-0.10214916
123	0xbdfd5d8d	-0.12371359
124	0xbdcc57e7	-0.099777035
125	0x3ced7637	0.028987033
126	0x3bec561b	0.007212413
127	0x3d9c2cec	0.07625756
128	0x3d58dd59	0.05294547
129	0x3e4582cc	0.19288176
130	0x3c13f5c4	0.009030763
131	0xbc8ee529	-0.017443256
132	0xbdb1df21	-0.086851366
133	0x3d824757	0.06361263
134	0xbd6bf22f	-0.05760401
135	0xbde81d6c	-0.11333737
136	0xbe69c94e	-0.22830698
137	0x3e73677b	0.23769943
138	0xbdb46540	-0.088083744
139	0x3e5a6cea	0.2133061
140	0xbe117986	-0.14206514
141	0xbe96ab0d	-0.29427376
142	0xbe1c2b11	-0.15250804
143	0x3cfb7e65	0.030699918
144	0x3e2d5087	0.1692525
145	0x3e397392	0.18110493
146	0xbe20cf10	-0.15703988
147	0xbe1b11ca	-0.15143505
148	0x3e135cc1	0.14390852
149	0xbe4a2620	-0.19741106
150	0xbe2d5e8b	-0.16930597
151	0x3db4edb8	0.08834404
152	0x3d8a2923	0.067461275
153	0xbe332360	-0.17493963
154	0xbd84f100	-0.064912796
155	0x3e1d89ea	0.15384641
156	0x3dabc1c7	0.083865695
157	0x3e03e11d	0.12878843
158	0xbde9f4b0	-0.114236236
159	0xbe347d68	-0.17625964
160	0xbe1c6cc2	-0.15275863
161	0xbddd3655	-0.10801379
162	0x3e4dfc48	0.20115769
163	0xbe2a917b	-0.16657059
164	0xbe895f68	-0.26830602
165	0xbe1bdd49	-0.15221132
166	0x3e6cecb3	0.23137169
167	0x3e6d8274	0.23194295
168	0xbdc6fff8	-0.09716791
169	0x3e4555fa	0.19271079
170	0x3e916c09	0.28402737
171	0xbd655fa3	-0.05599941
172	0x3e3f72c7	0.18696128
173	0xbd89d293	-0.06729617
174	0x3e5a26a0	0.21303797
175	0xbe482968	-0.19547045
176	0x3e2cd925	0.16879709
177	0xbe562408	-0.20912182
178	0x3e06d580	0.13167381
179	0xbe84ee04	-0.25962842
180	0xbe62c050	-0.22143674
181	0xbe692ec0	-0.2277174
182	0x3da5e960	0.081011534
183	0x3e579222	0.21051839
184	0xbe700290	-0.23438478
185	0xbe36d09b	-0.17853014
186	0x3e2602e5	0.16212042
187	0xbe21ab53	-0.15788011
188	0x3cbdfc7e	0.023191687
189	0x3e83db8b	0.25753435
190	0x3e2510eb	0.16119735
191	0xbe5bd9c0	-0.21469784
192	0x3e8c0d53	0.27353916
193	0x3d8b683b	0.0680699
194	0xbe3a789b	-0.1821007
195	0x3e71baa2	0.23606351
196	0x3e0e29c6	0.13883123
197	0x3dfaba46	0.1224256
198	0xbd643d5b	-0.055722576
199	0x3e5f0015	0.21777375
200	0x3e4905e3	0.19631152
201	0x3e5dd547	0.2166339
202	0x3e6d8376	0.2319468
203	0xbb8c20f0	-0.0042763874
204	0xbe04ea26	-0.12979946
205	0xbe8673a0	-0.2626009
206	0x3e81f6a3	0.2538348
207	0x3e8dfb81	0.27730945
208	0xbda987bd	-0.08277843
209	0x3e04f4e9	0.12984051
210	0x3e3d0524	0.18458992
211	0xbe560bb7	-0.20902906
212	0xbe28bec7	-0.16479026
213	0x3e61674a	0.22012058
214	0x3df8f8c7	0.121568255
215	0xbe5600ad	-0.20898695
216	0x3e46c62f	0.19411539
217	0x3e9816b2	0.29704815
218	0xbd852b84	-0.065024406
219	0x3c990406	0.018678676
220	0x3e2d9816	0.16952547
221	0x3e85ec79	0.26156977
222	0xbde51d01	-0.11187173
223	0x3e720e9d	0.23638387
224	0x3d32b083	0.043625366
225	0x3e77ab01	0.24186327
226	0x3e814581	0.2524834
227	0x3d67985f	0.056541797
228	0x3e0d2021	0.13781787
229	0xbe862db7	-0.26206753
230	0xbd5a6210	-0.053316176
231	0x3e19548a	0.14973655
232	0xbd2de5b3	-0.042455386
233	0x3dc03a7a	0.093861535
234	0xbe8ade26	-0.2712261
235	0x3c6a379a	0.014295483
236	0xbe4be79d	-0.19912572
237	0x3d169a25	0.036768097
238	0xbe3e5aba	-0.18589297
239	0xbe434b46	-0.19071683
240	0xbd9536d9	-0.07285852
241	0xbe351141	-0.17682363
242	0x3de6f097	0.112763576
243	0xbbc3df25	-0.0059775286
244	0xbd587e78	-0.052854985
245	0xbe702a1a	-0.2345356
246	0x3e0f3836	0.13986287
247	0x3e827edb	0.25487408
248	0x3e0352d1	0.1282456
249	0x3cb4fb19	0.022092389
250	0xbe67d309	-0.22639097
251	0xbd9212d8	-0.071325004
252	0x3e84b76b	0.25921187
253	0x3d9deca4	0.07711151
254	0x3e7f8c57	0.24955879
255	0x3e1af189	0.15131201

linear1.bias f4 [236]
0	0x3dc274f3	0.094949625
1	0x3e3ceed1	0.18450476
2	0xbdc27f4a	-0.09496935
3	0xbe946c61	-0.28988937
4	0x3e37bdb6	0.17943463
5	0x3d319de7	0.043363478
6	0xbc62615c	-0.013817158
7	0xbe925fb7	-0.2858865
8	0xbe64fc6c	-0.22361916
9	0x3e450d23	0.19243293
10	0xbe207219	-0.15668525
11	0xbd375b3f	-0.044764753
12	0xbe351049	-0.17681994
13	0x3dcf7427	0.10129576
14	0x3e5ccd6f	0.21562742
15	0xbd9cf5c2	-0.07664062
16	0x3d08ca92	0.03339631
17	0x3dd6008a	0.104493216
18	0xbe89dfe0	-0.26928616
19	0x3d088ace	0.0333355
20	0xbe7d47f9	-0.24734487
21	0x3ddca891	0.10774339
22	0xbc2802d7	-0.010254583
23	0xbdebd716	-0.11515634
24	0x3e030075	0.12793143
25	0x3e8619bd	0.26191512
26	0x3e13a08b	0.14416711
27	0xbd3e700f	-0.046493586
28	0x3def4c27	0.11684447
29	0x3e8dec6e	0.27719444
30	0xbe046846	-0.12930402
31	0xbe353746	-0.17696866
32	0xbe805b3a	-0.250696
33	0xbe0f463e	-0.13991639
34	0x3dd4b7e0	0.10386634
35	0xbe9805e3	-0.2969199
36	0xbe28e61d	-0.16494031
37	0xbe2484ff	-0.16066359
38	0xbdbab0e7	-0.09115773
39	0x3e780dc6	0.24224004
40	0x3e8d5819	0.27606276
41	0x3e6ce5af	0.23134492
42	0x3d25231f	0.040316697
43	0x3e0b54ca	0.13606563
44	0xbe5b4fe4	-0.21417195
45	0xbd01bf7b	-0.03167675
46	0xbe2ec7fb	-0.17068474
47	0xbd52373e	-0.051322214
48	0x3e14b115	0.14520676
49	0xbd9dfb43	-0.0771394
50	0x3e8f490c	0.27985418
51	0x3e8767ef	0.26446483
52	0xbe08ef6a	-0.13372579
53	0xbe015470	-0.12629867
54	0x3d2f9188	0.0428634
55	0xbe50396e	-0.20334408
56	0xbe0081f8	-0.12549579
57	0x3de34fed	0.11099229
58	0xbcdda85e	-0.027057823
59	0x3ccd9858	0.025097057
60	0xbd9ec2ee	-0.07752024
61	0x3e52d133	0.20587616
62	0x3d20bcad	0.039242435
63	0x3dc2532c	0.0948852
64	0x3e6ca6a2	0.2311044
65	0x3bd482a3	0.0064852997
66	0xbe2c49a9	-0.16824974
67	0x3da357d6	0.07975738
68	0xbe900055	-0.28125253
69	0x3d85b38e	0.06528388
70	0xbe87d6b5	-0.26530996
71	0x3e8c35b5	0.27384725
72	0x3e0a61e9	0.13513912
73	0xbe7e9109	-0.24860014
74	0xbcc8b6ac	-0.024501167
75	0xbbed0ac7	-0.007233951
76	0xbd5b5e55	-0.05355676
77	0xbd8aca93	-0.06776919
78	0x3e8b6516	0.2722556
79	0x3da319fc	0.079639405
80	0x3e9431c0	0.28944206
81	0x3d1397e2	0.03603352
82	0x3c342e8f	0.010997429
83	0xbd2aefb6	-0.041732512
84	0x3dc80b74	0.097678095
85	0x3df432e1	0.11923767
86	0x3e629493	0.22126989
87	0xb769c160	-1.3932906e-05
88	0x3cd93764	0.02651567
89	0x3dae9c9a	0.08525963
90	0x3ddcfed7	0.10790794
91	0xbe10f13b	-0.14154522
92	0x3c2f6dff	0.010707377
93	0x3d4ef9ba	0.050531127
94	0xbcc99811	-0.024608644
95	0xbe0ab79e	-0.13546607
96	0x3d5cd398	0.05391273
97	0xbdd16aab	-0.102254234
98	0x3e82d961	0.25556472
99	0xbdf7184d	-0.12065182
100	0x3e91e40b	0.28494295
101	0x3e1e2706	0.15444574
102	0x3d584b5f	0.052806254
103	0xbb977809	-0.0046224636
104	0xbe6e0dcb	-0.23247449
105	0xbe1c2fe9	-0.15252651
106	0x3e93f802	0.28900152
107	0x3e87d3dd	0.26528826
108	0xbe42f2d2	-0.19037941
109	0x3e9065d3	0.28202686
110	0x3c8cd6fd	0.017192358
111	0x3e2798c4	0.16366869
112	0x3e70a97a	0.2350215
113	0xbdc3156b	-0.095255695
114	0xbe22cdfc	-0.1589889
115	0xbe796075	-0.24353202
116	0x3e4a4b0a	0.19755188
117	0xbe4b0dd8	-0.198295
118	0xbdf144a9	-0.11780674
119	0x3dbff015	0.09371964
120	0xbd8a5496	-0.06754415
121	0x3dd95020	0.10610986
122	0x3e4a2988	0.19742405
123	0xbccc69b9	-0.024952756
124	0x3e432bc1	0.1905966
125	0xbe2fd25c	-0.1717009
126	0xbdc371d7	-0.095431976
127	0x3d92f115	0.07174889
128	0x3e3a1254	0.18171054
129	0x3e86fad9	0.26363257
130	0xbe47f1d1	-0.1952584
131	0xbe027882	-0.12741283
132	0x3e5e5e39	0.2171563
133	0x3e1c781f	0.15280198
134	0x3d1840ef	0.0371713
135	0xbe93b499	-0.28848723
136	0x3dd85ef5	0.105649866
137	0x3db43d71	0.088007815
138	0x3e8a11f2	0.26966816
139	0xbe579057	-0.21051155
140	0x3d7b6072	0.061371274
141	0x3e903834	0.2816788
142	0x3c9af8ce	0.018917467
143	0x3df79f60	0.12090945
144	0xbdeadf34	-0.11468354
145	0x3e81b746	0.2533514
146	0x3ced709d	0.028984362
147	0xbe8adec5	-0.27123085
148	0x3e543208	0.2072221
149	0xbe41ee58	-0.18938577
150	0xbca3d0db	-0.019997051
151	0x3cd53352	0.026025448
152	0x3e5314fb	0.20613472
153	0x3e6e3006	0.23260507
154	0x3e82ae7a	0.2552374
155	0xbe2194f2	-0.15779474
156	0xbe315b90	-0.17320085
157	0xbc195771	-0.009359227
158	0xbd91ca6d	-0.07118688
159	0xbd9f24c5	-0.07770685
160	0x3e0878f0	0.13327384
161	0x3e83a8bf	0.2571468
162	0xbe9d2b80	-0.3069725
163	0xbc58ae24	-0.013225112
164	0xbe66af2d	-0.22527762
165	0x3e89baf3	0.26900443
166	0x3e87ceb7	0.26524898
167	0xbcb574bb	-0.022150388
168	0xbe1b92a7	-0.15192662
169	0xbe1f19d9	-0.15537204
170	0xbdb04a55	-0.08607928
171	0xbdabbeb0	-0.0838598
172	0xbe46e621	-0.19423725
173	0xbde26cbf	-0.11055898
174	0x3c14aa33	0.009073782
175	0xbe056bf3	-0.1302946
176	0xbdc3abbd	-0.09554241
177	0xbdda91d7	-0.10672348
178	0x3d7c1572	0.06154389
179	0xbd828a25	-0.06374005
180	0x3e36c001	0.17846681
181	0xbe43a040	-0.191041
182	0x3e9737f6	0.29534882
183	0x3d99974f	0.07499563
184	0x3e101cc1	0.14073469
185	0xbe2b4b10	-0.16727853
186	0xbd8c441b	-0.068489276
187	0x3dd7afeb	0.105316006
188	0x3dce1fff	0.100646965
189	0x3d049c67	0.03237572
190	0x3e3f4f94	0.186827
191	0x3e2426f6	0.16030487
192	0xbe434a9c	-0.1907143
193	0xbe010315	-0.12598832
194	0x3d89c54e	0.06727086
195	0xbe430c79	-0.19047727
196	0x3e426910	0.1898539
197	0x3e82d976	0.25556535
198	0x3dc2ee85	0.0951815
199	0x3da1f738	0.07908481
200	0x3dcbce86	0.099515006
201	0xbcbb8d2f	-0.02289447
202	0xbdcb6a7c	-0.0993242
203	0xbe676432	-0.22596815
204	0x3da8b872	0.08238305
205	0xbd8924f0	-0.066964984
206	0xbe50b45d	-0.20381303
207	0x3dd6b189	0.10483081
208	0xbe8cd536	-0.27506417
209	0x3e4a33d9	0.19746341
210	0x3aff3c2e	0.0019472891
211	0xbe200602	-0.15627292
212	0x3d2ebf8b	0.04266314
213	0xbdb35864	-0.087570935
214	0x3dc21e2d	0.09478412
215	0xbe870037	-0.2636735
216	0xbe93b5e5	-0.28849712
217	0x3e6295b3	0.22127418
218	0x3ceb85a4	0.028750248
219	0xbe2e768e	-0.17037413
220	0xbe8f3a30	-0.2797408
221	0xbe20dde4	-0.15709645
222	0xbe0a0f64	-0.13482434
223	0x3e9772e3	0.2957984
224	0xbe0fd278	-0.14045131
225	0x3e3023ad	0.17201109
226	0xbe38adab	-0.18034999
227	0x3d94730a	0.072485045
228	0x3e7eb4fd	0.24873729
229	0xbde05d28	-0.10955268
230	0x3e52c3a0	0.20582438
231	0xbd722757	-0.05911955
232	0x3d887e6f	0.0666474
233	0x3d1fc2f8	0.039004296
234	0xbe0d330b	-0.13789003
235	0xbe8b10bb	-0.27161202

linear2.weight f4 [3, 236]
0	0x3c723451	0.014782981
1	0xbc468950	-0.012117699
2	0xbd42e100	-0.047577858
3	0x3d1db966	0.038506888
4	0xbce96d70	-0.028494567
5	0xbcdf8211	-0.0272837
6	0xba40a4f0	-0.00073487964
7	0xbca4c547	-0.0201136
8	0xbcb2b0d6	-0.021812838
9	0xbd2a5d85	-0.041593093
10	0xbd42cfc9	-0.04756144
11	0xbc0ffd6e	-0.00878845
12	0x3cc7b57e	0.024378534
13	0xbd018f1d	-0.031630624
14	0x3cae940e	0.021310832
15	0x3d10f770	0.035392225
16	0xbb654e37	-0.0034989247
17	0xbc7fb94a	-0.015608141
18	0x3d66f505	0.056386013
19	0x3d7e7002	0.062118538
20	0xbc92cdcc	-0.017920397
21	0xbd2a69a7	-0.041604664
22	0xbbf4bb51	-0.007468619
23	0x3c59d7b7	0.013296059
24	0xbd027620	-0.031850934
25	0x3d04983b	0.03237174
26	0x3d4acf48	0.049514085
27	0x3d05b040	0.03263879
28	0xbd4669b3	-0.048440646
29	0x3bc83213	0.006109485
30	0x3d6d778b	0.057975333
31	0x3d49d9ae	0.04927986
32	0x3b5c0ef5	0.003357825
33	0xbb5df4b1	-0.0033867771
34	0xbd4cc10b	-0.049988788
35	0x3b3446ab	0.0027507942
36	0xbd2769aa	-0.040872253
37	0xbd79d649	-0.060995374
38	0x3cdc28bb	0.02687489
39	0xbccce46f	-0.02501127
40	0xbcdc8794	-0.026920117
41	0x3d441710	0.047873557
42	0xbc4acb1e	-0.0123775285
43	0x3bac2915	0.005253921
44	0x3c8eaead	0.017417276
45	0xbae5085c	-0.0017473805
46	0x3d4a1709	0.049338374
47	0xbc2214a2	-0.009892615
48	0xbd0b8fde	-0.03407275
49	0xbc8b106f	-0.01697561
50	0x3d1c8c7d	0.038219918
51	0xbc1b26a9	-0.0094696665
52	0xbd2708c9	-0.040779863
53	0x3cde8bca	0.027166266
54	0xbd15c78c	-0.036567256
55	0xbd5f37a0	-0.054496408
56	0x3d6e4826	0.058174275
57	0xbd6a4219	-0.057191942
58	0x3d253f79	0.040343735
59	0xbceb5ef1	-0.028731795
60	0xbd8799cf	-0.066211335
61	0xbd1cf07a	-0.038315274
62	0xbd83f077	-0.064423494
63	0xbc48cb67	-0.012255526
64	0x3d70ae90	0.058760226
65	0x3d7e30d8	0.0620583
66	0xbd61fe70	-0.05517429
67	0xbb0ccb6c	-0.0021483554
68	0xbd42c5d8	-0.04755196
69	0xbb820e5f	-0.0039689983
70	0x3d2f5703	0.04280759
71	0x3baa9c1c	0.005206598
72	0x3d375883	0.044762146
73	0xbcc003f2	-0.023439381
74	0xba2a9753	-0.00065075344
75	0x3d05b00e	0.032638602
76	0xbb28de28	-0.002576718
77	0x3d1570bd	0.03648447
78	0x3b8ad3cd	0.0042366744
79	0xbd3afc9c	-0.045651063
80	0xbcf21b0e	-0.029553916
81	0xbd50e3e6	-0.05099859
82	0xbd71de4c	-0.05904989
83	0xbce67540	-0.028132081
84	0x3d3fe702	0.046851166
85	0x3d49a417	0.049228754
86	0xbd37f584	-0.044911876
87	0x3c076d1a	0.008265758
88	0xbd5264e9	-0.051365767
89	0xbb1effea	-0.0024261423
90	0x3d1cb1b5	0.038255412
91	0xbd188049	-0.037231717
92	0xbca24ddb	-0.019812515
93	0x3d1dc383	0.038516533
94	0x3c8a3fc3	0.016876107
95	0x3c320238	0.010864787
96	0x3ca3cc35	0.019994834
97	0x3d69836c	0.0570101
98	0x3d68a88d	0.056801368
99	0xbd14a232	-0.036287494
100	0xbc412f41	-0.011791051
101	0x3ccbf2dd	0.02489608
102	0xbce67634	-0.028132536
103	0x3d6fa383	0.058505546
104	0x3d2c0d97	0.042005148
105	0xbd5ed7e3	-0.054405104
106	0xbd2282c5	-0.039675493
107	0x3c8c31bf	0.017113565
108	0xbc9f6e0f	-0.01946166
109	0x3cd800d7	0.026367588
110	0x3d7ec24c	0.062197015
111	0x3cfd0f06	0.030890953
112	0x3bfcadcf	0.0077111493
113	0xbbe78e10	-0.0070664957
114	0x3ccb38e0	0.024807394
115	0x3d044f74	0.032302335
116	0xbd2b03a0	-0.041751504
117	0x3d8343e1	0.06409431
118	0x3cc43942	0.023953084
119	0xbd5780db	-0.05261312
120	0x3d835351	0.06412376
121	0x3d25dbab	0.040492695
122	0xbc1e93bf	-0.00967878
123	0xbd59dd93	-0.053189825
124	0xbc10cbf6	-0.008837691
125	0x3d76acab	0.060223263
126	0x3d49d6e3	0.049277198
127	0x3d8c61b2	0.068545714
128	0x3cf795c5	0.030222783
129	0x3c1cfd12	0.009581821
130	0x3c12b043	0.008953157
131	0x3cfb5b98	0.030683324
132	0xbd2a67bc	-0.041602835
133	0x3d5983ab	0.053104084
134	0xbc8ae688	-0.016955629
135	0xbd55b097	-0.052170362
136	0xbc7f738c	-0.015591513
137	0x38a151a8	7.692288e-05
138	0xbcf88c2b	-0.030340275
139	0xbd116475	-0.035496194
140	0x3d82abe1	0.063804395
141	0x3d806c92	0.06270708
142	0xbc60ee3b	-0.013728674
143	0xbbb8f789	-0.005644743
144	0x39e0a3ba	0.00042846595
145	0xbc3b84b2	-0.011445211
146	0xbce12ad7	-0.027486248
147	0xbd3b255f	-0.045689937
148	0x3c2b05aa	0.010438362
149	0xbb9d0d1c	-0.0047928225
150	0x3d29366e	0.041311674
151	0xbc28c1fc	-0.010300156
152	0xbc1690c4	-0.009189788
153	0xbd79149d	-0.060810674
154	0x3d066e57	0.032820072
155	0xbced8485	-0.028993854
156	0xbd212e3e	-0.03935074
157	0x3c90dbad	0.017682875
158	0xbd22ef1b	-0.03977881
159	0x3af1a6b0	0.0018436518
160	0x3b6644d8	0.003513625
161	0xbd0602a2	-0.032717355
162	0xbd3e220d	-0.046419192
163	0x3cecd319	0.028909253
164	0x3d8284f4	0.06373015
165	0xbbe7362e	-0.0070560193
166	0x3d17bb67	0.037043955
167	0x3ccbb4dd	0.024866516
168	0x3d3cc708	0.04608825
169	0xbd8c7f4e	-0.06860219
170	0x3d03a75d	0.032142032
171	0x3cb8d476	0.022562247
172	0x353d8e18	7.061476e-07
173	0x3cfba7db	0.030719688
174	0xbca3f895	-0.020015994
175	0x3a83efd6	0.0010065984
176	0xbd639122	-0.05555833
177	0x3cb53339	0.022119151
178	0x3ae7722e	0.001765793
179	0xbd2bf348	-0.041980058
180	0xbd340a68	-0.043955237
181	0x3c05fd59	0.008178079
182	0x3d8e8499	0.06958885
183	0xbd5a8f7a	-0.053359486
184	0x3d603e22	0.054746754
185	0x3aa8672a	0.0012848128
186	0x3bac7bb4	0.00526377
187	0x3d35c8a7	0.04438081
188	0x3d8b1b62	0.06792332
189	0xbb3013dd	-0.0026867308
190	0x3d8485cb	0.064708315
191	0xbd00858d	-0.031377364
192	0x3d7faae8	0.06241885
193	0xbc8d9e6e	-0.01728746
194	0x3c2131d9	0.009838545
195	0x3d2bb722	0.041922696
196	0xbc0b0d6c	-0.008487087
197	0xbd2692dd	-0.040667403
198	0xbca72e24	-0.020407744
199	0x3d61c8f7	0.055123296
200	0x3d0d56eb	0.03450672
201	0xbc848c32	-0.016180132
202	0xbd57ab53	-0.052653622
203	0x3d68c0b2	0.056824394
204	0x3cf176b9	0.029475557
205	0x3cff58bf	0.031170247
206	0xbd3fb9b3	-0.046807956
207	0xbcc73de8	-0.024321511
208	0xbcac943e	-0.021066781
209	0x3d4e6039	0.050384734
210	0x3d142101	0.036164287
211	0xbd0c769f	-0.034292813
212	0xbd0206aa	-0.031744637
213	0x3d628f73	0.055312585
214	0x3d5203f4	0.0512733
215	0xbd1d6acc	-0.038431928
216	0x3ccd6da7	0.0250767
217	0xbd57cc12	-0.05268485
218	0x3d810ce8	0.0630129
219	0x3d49a63b	0.049230795
220	0xbc6abf4d	-0.014327836
221	0xbc4d6dbb	-0.012538369
222	0xbc5bbf02	-0.013412239
223	0x3c092d29	0.008372583
224	0x3d03bb9d	0.032161344
225	0x3c93a1ef	0.018021552
226	0xbc207be9	-0.0097951675
227	0x3d86e498	0.065865695
228	0xbd239846	-0.03994014
229	0xbae71654	-0.0017630556
230	0x3beb8103	0.0071870103
231	0x3c854aaa	0.016270954
232	0x3d713965	0.058892626
233	0xbd3d28c0	-0.04618144
234	0x3c417dc1	0.011809767
235	0x3d15f310	0.036608756
236	0xbc68b076	-0.014202228
237	0x3b9e5709	0.0048321527
238	0xbd4290dd	-0.047501434
239	0xbcaf347d	-0.021387333
240	0x3d753e65	0.059873957
241	0x3ccdfc67	0.025144769
242	0xbc17d9fa	-0.009268278
243	0xbc9ff1cc	-0.019524477
244	0x3d46d4f8	0.048542947
245	0xbb70e1c6	-0.0036755665
246	0xbc66ed6e	-0.014094694
247	0x3ce0f602	0.027461056
248	0x3d6658db	0.056237083
249	0x3b759692	0.003747378
250	0x3d149b99	0.036281202
251	0xbcd3b11e	-0.025841292
252	0x3bfa1b8b	0.007632678
253	0x3d31187c	0.04323624
254	0x3c73b904	0.014875654
255	0x3d414bf7	0.047191586

linear2.bias f4 [3]
0	0x3c9dbe96	0.019255918
1	0x3d48d0af	0.04902714
2	0xbd23462b	-0.03986184
