model/model_snake.pth (torch, 16176 bytes, 4 tensors)

linear1.weight f4 [236, 11]
0	0x3e904545	0.28177848
1	0xbe2c6bae	-0.16837952
2	0xbbb66108	-0.0055657662
3	0xbd2d4d07	-0.042309787
4	0xbe8569d0	-0.2605729
5	0xbd7e49f9	-0.062082265
6	0xbd89cd3b	-0.06728598
7	0xbe2433d2	-0.16035393
8	0xbe8e77b8	-0.27825713
9	0xbe905083	-0.28186426
10	0xbda0085b	-0.07814094
11	0x3d100295	0.035158712
12	0x3e2e04b0	0.16993976
13	0xbe146dd4	-0.14495021
14	0xbe599199	-0.21246947
15	0xbe3ba3c8	-0.18324196
16	0xbe56c073	-0.20971851
17	0x3e938f2f	0.28820178
18	0xbcf24cc2	-0.029577617
19	0x3d1df194	0.038560465
20	0xbe2d7970	-0.16940856
21	0xbe042a64	-0.12906796
22	0x3df06f41	0.1173997
23	0x3e7e27e2	0.24819902
24	0x3e33036f	0.17481779
25	0x3e237627	0.1596304
26	0xbd221e75	-0.039579827
27	0xbe19774f	-0.14986919
28	0x3e8e0b6d	0.27743092
29	0x3df15bbb	0.11785074
30	0x3e37fc26	0.17967281
31	0x3e64980a	0.22323623
32	0xbe111f10	-0.14172006
33	0x3da7960e	0.081829175
34	0x3e2f1c4b	0.17100637
35	0xbe952b3d	-0.2913455
36	0xbcaa110f	-0.020760087
37	0xbd51efae	-0.051253967
38	0x3e56774d	0.20943947
39	0xbd617b00	-0.055048943
40	0x3e200b1a	0.15629235
41	0xbe8ccc07	-0.2749941
42	0xbe0eccc8	-0.13945305
43	0x3d86efa3	0.06588676
44	0xbdf74d6b	-0.12075313
45	0xbe34db37	-0.17661749
46	0x3e3a33a5	0.18183763
47	0xbddd3845	-0.10801748
48	0x3d625e93	0.055265974
49	0xbe6acee7	-0.2293049
50	0x3e8247dd	0.25445452
51	0x3e732b09	0.23746885
52	0xbd749a7b	-0.059717637
53	0xbe3c4929	-0.18387283
54	0xbe489e16	-0.19591555
55	0x3e34774b	0.17623632
56	0x3d914e3c	0.07095
57	0x3e99ec8f	0.30063292
58	0xbbe46fae	-0.006971321
59	0xbe3499e7	-0.17636834
60	0x3d8a83f7	0.067634515
61	0x3cb2e977	0.02183984
62	0x3d7a137b	0.061053734
63	0x3dc6eeae	0.09713493
64	0x3de51475	0.111855425
65	0xbd52be05	-0.051450748
66	0xbe95a756	-0.2922923
67	0xbe2b2ede	-0.16717097
68	0x3e2cbf98	0.16869962
69	0xbdf09753	-0.11747613
70	0x3dccb819	0.09996051
71	0xbe3a2e87	-0.18181811
72	0x3ce37fef	0.027770964
73	0xbdeaa34c	-0.11456928
74	0x3e5c73e8	0.2152859
75	0xbe97165b	-0.29509243
76	0xbe8deca9	-0.2771962
77	0x3e051f60	0.1300025
78	0x3d46e256	0.048555695
79	0x3df272ff	0.1183834
80	0x3dd5a060	0.1043098
81	0x3d82f247	0.06393867
82	0x3d9ab896	0.07554738
83	0x3e364fb4	0.17803842
84	0xbe884c73	-0.26620826
85	0xbe8eea30	-0.27913046
86	0xbbb5459d	-0.00553198
87	0x3cda0b40	0.026616693
88	0xbe3d7f8b	-0.18505685
89	0x3e2b3ddd	0.16722818
90	0xbe76b65b	-0.24093
91	0xbe2568dc	-0.16153282
92	0x3e257975	0.16159613
93	0x3dd2f1c5	0.1030002
94	0x3dae1508	0.08500105
95	0x3e436176	0.19080147
96	0xbc96a427	-0.01838882
97	0x3e3d5f3a	0.18493357
98	0x3df5291d	0.11970732
99	0x3e37172a	0.1787993
100	0xbe64968a	-0.22323051
101	0x3e05286c	0.13003701
102	0xbe01284d	-0.1261303
103	0x3e0a3526	0.13496837
104	0xbe2a89a3	-0.16654067
105	0x3e349f97	0.17639004
106	0xbe60bf66	-0.21948013
107	0x3e4b1cca	0.19835201
108	0xbe597735	-0.2123688
109	0xbe82da1d	-0.25557032
110	0xbbceafed	-0.006307593
111	0x3dbbd3e6	0.09171276
112	0xbe51654a	-0.20448795
113	0x3e80909e	0.25110334
114	0xbdc34afe	-0.09535788
115	0x3e06d8a8	0.13168585
116	0x3d30ff2a	0.043212093
117	0xbdcbe66a	-0.09956057
118	0xbccb6024	-0.024826117
119	0xbd8c32aa	-0.06845601
120	0xbe80f75c	-0.2518872
121	0x3df144da	0.117807105
122	0xbdf4e043	-0.11956837
123	0x3da44f52	0.08022942
124	0x3e15a348	0.14613068
125	0xbdd660f2	-0.104677096
126	0x3dda4140	0.10656977
127	0xbe201d21	-0.15636112
128	0xbde96bc2	-0.11397506
129	0x3e8f0f71	0.27941468
130	0x3dbd9cbe	0.09258412
131	0x3e898eff	0.2686691
132	0xbd3f8f2a	-0.04676739
133	0xbe8250c2	-0.25452238
134	0x3e9b9a2e	0.30391067
135	0xbe893c12	-0.26803643
136	0x3e486107	0.19568263
137	0xbd1a1924	-0.037621632
138	0x3e81b82e	0.2533583
139	0xbe32879f	-0.17434548
140	0x3e90b791	0.2826505
141	0xbe714e4c	-0.23565024
142	0xbcdcaa17	-0.026936574
143	0xbe99045e	-0.29886144
144	0x3e9c6793	0.3054777
145	0x3e6672eb	0.22504775
146	0x3e08d776	0.13363442
147	0xbd970923	-0.073747896
148	0x3e49625c	0.19666427
149	0xbcbb545c	-0.022867374
150	0xbdaacf79	-0.083403535
151	0x3ab6d8ad	0.0013950072
152	0xbddcb197	-0.1077606
153	0xbd9682a5	-0.07349137
154	0x3e92e222	0.2868815
155	0x3e2d93b2	0.16950873
156	0x3e4a36d0	0.19747472
157	0x3e1019c4	0.14072329
158	0x3d19144c	0.037372872
159	0x3bbf6c8e	0.005841798
160	0xbe1291fc	-0.14313501
161	0xbe98993c	-0.2980441
162	0x3e7e502d	0.24835272
163	0x3da06335	0.07831422
164	0xbe9911a1	-0.29896262
165	0xbcb41e12	-0.021986995
166	0x3e49a5b7	0.19692121
167	0xbe76755d	-0.24068208
168	0x3df3b768	0.11900216
169	0x3e36738b	0.17817514
170	0xbe52b459	-0.2057661
171	0x3e330dda	0.17485753
172	0x3e55e87e	0.2088947
173	0x3e908b5a	0.28231317
174	0x3dc87059	0.097870536
175	0xbe8f6d3a	-0.2801302
176	0xbe96dca4	-0.2946521
177	0xbe8d553e	-0.27604097
178	0x3da939a0	0.08262944
179	0x3e85f6a1	0.26164725
180	0x3e5838d2	0.21115425
181	0xbe578f94	-0.21050864
182	0xbdddbd94	-0.10827175
183	0x3dbdc065	0.09265212
184	0xbe8eb1a9	-0.2786992
185	0xbe55a0c4	-0.20862108
186	0x3d07c214	0.03314407
187	0x3e5e4a3d	0.21708007
188	0xbe634628	-0.22194731
189	0x3e5f07f2	0.21780375
190	0xbd1738ed	-0.036919523
191	0xbd39edb4	-0.045392707
192	0x3ddb796c	0.10716519
193	0xbd32b0e6	-0.043625735
194	0xbd44dbf0	-0.04806131
195	0x3d9c0d68	0.076197445
196	0xbd33adb6	-0.043866836
197	0x3c1b4066	0.009475803
198	0xbe5f6f16	-0.2181972
199	0x3e9ab6ed	0.30217686
200	0x3ddc5f8b	0.10760411
201	0xbe815a92	-0.25264412
202	0x3e1954f2	0.1497381
203	0x3e8f185c	0.27948272
204	0x3dbfbc0d	0.0936204
205	0xbe16ca3d	-0.14725585
206	0xbe92d500	-0.2867813
207	0xbe515764	-0.20443493
208	0xbe56f874	-0.20993215
209	0x3bb8e034	0.0056419615
210	0xbe880b43	-0.26571092
211	0xbbfc35ee	-0.0076968586
212	0xbe09b981	-0.1344967
213	0xbe88a90c	-0.26691473
214	0x3e890609	0.26762417
215	0x3e7d35a6	0.24727497
216	0x3e0c8c74	0.13725454
217	0x3e5e398a	0.21701637
218	0xbe4f7d1c	-0.20262569
219	0x3e49400a	0.19653335
220	0xbdc6365f	-0.09678339
221	0x3d64d067	0.05586281
222	0x3e7f2536	0.24916539
223	0x3db78ee6	0.089628026
224	0x3e1350b9	0.14386262
225	0xbdf77121	-0.120821245
226	0x3c5579ef	0.0130295595
227	0x3d952d69	0.07284052
228	0x3e99bd67	0.30027315
229	0x3e1518c7	0.14560233
230	0xbd883c6f	-0.06652152
231	0x3d3b438d	0.04571872
232	0x3d600bdd	0.054698814
233	0x3e924a53	0.2857233
234	0xbe0ecc59	-0.1394514
235	0xbd8f9c49	-0.07012231
236	0xbe53b514	-0.20674545
237	0xbe8d662f	-0.27617022
238	0xbd52dc02	-0.051479347
239	0xbe5454f2	-0.20735529
240	0x3dd4941a	0.10379811
241	0x3dd0861f	0.101818316
242	0x3cbea834	0.023273565
243	0x3e2cbf89	0.1686994
244	0xbd1a2d19	-0.037640665
245	0xbe7e1f2d	-0.2481658
246	0xbd59b8bf	-0.053154703
247	0x3d97e421	0.07416559
248	0x3e6e23be	0.23255822
249	0xbe76ffb1	-0.24120976
250	0x3e583336	0.21113285
251	0x3ceead9e	0.029135522
252	0x3c44b8b2	0.012006925
253	0x3d248fff	0.040176388
254	0x3e5d57f5	0.21615584
255	0xbe47feb6	-0.19530758

linear1.bias f4 [236]
0	0x3e4b4800	0.19851685
1	0xbe017779	-0.12643231
2	0x3e633812	0.22189358
3	0xbe387971	-0.18015076
4	0x3e94653e	0.28983492
5	0x3db16ad1	0.08662952
6	0xbe82f3d0	-0.2557664
7	0xbe39834a	-0.18116489
8	0x3da9ceec	0.0829142
9	0x3d850b32	0.06496276
10	0xbda5f82b	-0.08103975
11	0xbe0d05bf	-0.13771723
12	0xbe5bec97	-0.2147697
13	0xbe5ad959	-0.21371974
14	0x3ce165b2	0.027514312
15	0xbe3917f6	-0.18075547
16	0xbda54b06	-0.0807095
17	0x3c851c1f	0.01624876
18	0x3d2a1560	0.04152429
19	0xbd90cd52	-0.07070412
20	0x3e1906b6	0.14943966
21	0xbe133ee7	-0.14379464
22	0x3dd8b7f1	0.10581959
23	0x3bd5fa45	0.0065300786
24	0x3b2c0e14	0.0026253508
25	0x3e7fb2b9	0.24970521
26	0x3e83cb1a	0.25740892
27	0xbe0b4704	-0.13601309
28	0x3e9567d6	0.29180783
29	0xbe70e1a9	-0.23523583
30	0xbe248eb2	-0.16070059
31	0xbd71080c	-0.058845565
32	0x3d192029	0.037384186
33	0x3e1e6928	0.15469801
34	0xbd07acb2	-0.03312368
35	0x3e196f6c	0.1498391
36	0x3d95a460	0.07306743
37	0xbd10948a	-0.035297908
38	0x3e063e0e	0.1310961
39	0x3e125c55	0.14293034
40	0xbe44efb2	-0.19232062
41	0x3e383f6d	0.17992945
42	0xbbde71ff	-0.0067884917
43	0x3becf2ae	0.007231078
44	0x3e13e5f8	0.14443195
45	0x3e7bd264	0.24591976
46	0xbe86c448	-0.26321626
47	0xbd4d96cf	-0.05019265
48	0xbe316584	-0.17323881
49	0x3e09abb0	0.134444
50	0xbe4bec77	-0.19914423
51	0xbe271dba	-0.16319934
52	0xbe2d1792	-0.16903523
53	0xbe96efbc	-0.29479778
54	0xbe3c3d07	-0.18382655
55	0xbdc56650	-0.09638655
56	0xbe7733de	-0.2414088
57	0xbe8bbc9d	-0.27292338
58	0x3d358146	0.044312738
59	0xbddedd9f	-0.108821146
60	0xbd752f15	-0.059859354
61	0x3e5186fb	0.20461647
62	0x3d809ecf	0.0628029
63	0x3e504fed	0.2034299
64	0x3e075df7	0.13219438
65	0xbe3e823b	-0.18604366
66	0xbdc9a677	-0.09846204
67	0x3e94a2a0	0.29030323
68	0x3dc49d85	0.09600357
69	0xbd9ca658	-0.07648915
70	0x3d3deec1	0.04637027
71	0x3e052f6c	0.13006371
72	0xbb646ea9	-0.0034855998
73	0x3cd6f2b7	0.026238782
74	0x3e29d493	0.16584997
75	0xbd9cbef1	-0.07653607
76	0xbe0f2fcb	-0.13983075
77	0xbd1b07b0	-0.03784913
78	0x3e31337b	0.17304794
79	0x3e87d95c	0.2653302
80	0xbe570c2b	-0.21000735
81	0xbe26ed88	-0.16301548
82	0x3e812ac9	0.25227955
83	0xbe6e3e8e	-0.2326605
84	0xbc55adba	-0.013041908
85	0xbe1ba2b9	-0.15198793
86	0xbe233165	-0.15936811
87	0xbe611a70	-0.21982741
88	0x3e114674	0.14187032
89	0xbc15f49c	-0.009152558
90	0xbe5f093f	-0.21780871
91	0xbe44f4e6	-0.19234046
92	0x3e41eb09	0.18937315
93	0x3e5e493e	0.21707627
94	0xbe937d8d	-0.28806725
95	0x3dc5ca9f	0.096577875
96	0xbe55dae2	-0.20884278
97	0x3dfbd59d	0.12296603
98	0x3e7b64b7	0.24550138
99	0xbe7adf0a	-0.24499145
100	0xbcb88172	-0.022522662
101	0xbe8aced4	-0.27110922
102	0xbe79ff5f	-0.24413823
103	0x3e426a5a	0.18985882
104	0x3e8f0a3f	0.27937505
105	0xbe88646e	-0.26639122
106	0xbdd30317	-0.10303324
107	0x3dee1b14	0.116262585
108	0xbe115583	-0.14192776
109	0xbdd55ee9	-0.10418493
110	0xbe38a188	-0.1803037
111	0x3e8c7970	0.274364
112	0x3da193fd	0.07889555
113	0x3e35e82e	0.17764351
114	0xbe82f5ac	-0.25578058
115	0x3e5fdfa0	0.2186265
116	0xbd944e7d	-0.07241533
117	0xbe904310	-0.28176165
118	0x3e2d77e7	0.1694027
119	0x3e9342cb	0.28761896
120	0x3d1505f1	0.03638262
121	0x3d6a5033	0.05720539
122	0x3e914d7b	0.28379425
123	0xbe595f0a	-0.21227661
124	0x3c0082f9	0.007843726
125	0xbd350ae4	-0.04419984
126	0x3e43d5b2	0.19124487
127	0xbdd77fe5	-0.10522441
128	0xbe24028c	-0.16016597
129	0x3e7ae9b2	0.2450321
130	0x3e4e3cac	0.20140332
131	0x3e8e79d4	0.27827322
132	0x3e0155cb	0.12630384
133	0xbdb2571b	-0.0870802
134	0xbe4974d5	-0.19673474
135	0x3e7e817a	0.24854079
136	0x3e8fbfa8	0.2807591
137	0xbe3649cc	-0.17801589
138	0xbe53a6b0	-0.20669055
139	0xbe601ef4	-0.21886808
140	0xbe536bf7	-0.20646654
141	0xbe890c54	-0.26767218
142	0xbe06c443	-0.13160805
143	0xbd3d3d45	-0.04620101
144	0x3e0c663a	0.13710871
145	0xbdd14669	-0.10218508
146	0xbe4dd489	-0.20100607
147	0x3e046016	0.12927279
148	0xbb8b166c	-0.0042446163
149	0x3bfab5e4	0.0076510776
150	0x3e9843a5	0.2973911
151	0x3dcdae2e	0.10042988
152	0x3d790c62	0.060802825
153	0x3d9eb225	0.07748822
154	0x3e7f847b	0.24952881
155	0x3e9383c6	0.28811473
156	0x3d873667	0.06602173
157	0x3ddd3e51	0.108029015
158	0xbdefa6ed	-0.117017604
159	0xbcf7ebc7	-0.030263795
160	0xbdf7eb99	-0.121054836
161	0xbe445369	-0.19172443
162	0x3cc3fc6c	0.023924075
163	0xbc2dc92e	-0.010607047
164	0xbe818bfe	-0.25302118
165	0x3d55e179	0.05221698
166	0xbe6f3863	-0.23361354
167	0xbe9c0561	-0.30472854
168	0xbd80f528	-0.0629676
169	0xbc9c8429	-0.019105988
170	0x3d22c516	0.039738737
171	0x3e04a001	0.12951662
172	0x3d89e2ce	0.06732713
173	0x3e90875a	0.28228265
174	0x3c7f2c5d	0.015574542
175	0xba4c4051	-0.00077915663
176	0x3dcce7ae	0.10005127
177	0xbd9051f9	-0.07046885
178	0xbd6a674d	-0.05722742
179	0xbd729f9b	-0.059234243
180	0xbe8ba0ec	-0.2727121
181	0xbe57232e	-0.21009514
182	0xbe46f48c	-0.19429225
183	0xbe5e3e33	-0.21703415
184	0xbe89b97b	-0.26899323
185	0xbe0d4866	-0.13797149
186	0xbe3d351b	-0.1847729
187	0xbd832b0b	-0.06404694
188	0xbe6e40ca	-0.23266903
189	0x3d48c389	0.0490146
190	0x3e3a7a9b	0.18210833
191	0xbe87b0fb	-0.26502213
192	0xbe0f73fd	-0.1400909
193	0xbe5f1a10	-0.21787286
194	0x3e6a67b6	0.22891125
195	0xbe84d3ba	-0.25942785
196	0xbe5dadb4	-0.21648294
197	0x3e10c3ea	0.14137235
198	0x3deff3f8	0.11716455
199	0xbe961556	-0.29313153
200	0xbd947f87	-0.072508864
201	0xbe3c0bd1	-0.18363883
202	0xbe41f668	-0.18941653
203	0x3e763158	0.2404226
204	0xbe79766b	-0.24361579
205	0x3cb5ab6a	0.022176463
206	0xbe36e49e	-0.17860648
207	0x3e590252	0.21192291
208	0x3de94e3e	0.11391877
209	0x3e017ad7	0.12644516
210	0xbe041060	-0.12896872
211	0xbe789a84	-0.24277693
212	0x3e80edee	0.25181526
213	0xbe441cd7	-0.19151627
214	0xbe92f0b0	-0.28699255
215	0xbe221059	-0.15826549
216	0x3e265b33	0.16245727
217	0xbe2df3b1	-0.16987492
218	0xbe918512	-0.28421837
219	0x3e8e6cce	0.27817386
220	0x3d21af23	0.039473664
221	0xbe780185	-0.2421933
222	0x3c8f8a82	0.0175221
223	0xbe2c64f1	-0.16835381
224	0xbd882916	-0.066484615
225	0x3d9ca94c	0.07649478
226	0xbe1de802	-0.15420535
227	0xbe7d8562	-0.24757913
228	0x3e60ceb4	0.21953851
229	0xbe97dcf9	-0.29660776
230	0x3e12e4ab	0.14345042
231	0x3e5339dc	0.2062754
232	0x3e562d72	0.20915774
233	0xbe692673	-0.22768573
234	0x3d9bad0e	0.07601367
235	0x3e0e745d	0.13911577

linear2.weight f4 [3, 236]
0	0xbc660739	-0.014039808
1	0x3cf19a2d	0.029492462
2	0x3d38c5a2	0.045110352
3	0x3d6e6833	0.05820484
4	0x3ccc3457	0.024927301
5	0xbd582bd7	-0.052776184
6	0x3cc8c533	0.024508094
7	0xbb87103a	-0.0041218074
8	0xbd59ecbe	-0.05320429
9	0x3ce450c6	0.027870547
10	0xbd2eeca6	-0.042706154
11	0x3d4534ed	0.048146177
12	0xbd3cc876	-0.046089612
13	0xbc7af62e	-0.015317483
14	0xbd51c388	-0.051211864
15	0x3d711346	0.05885627
16	0x3d1b956b	0.037984293
17	0x3d0274fb	0.031849843
18	0xbcd350a0	-0.025795281
19	0xbcd127d7	-0.025531692
20	0xbd81f3bb	-0.06345316
21	0x3d279ee5	0.040923018
22	0xbd2e797f	-0.042596336
23	0x3c9f9bb5	0.019483427
24	0xbd8bbc3d	-0.06823013
25	0xbd42e7c6	-0.047584318
26	0x3cad9230	0.021187872
27	0x3d3b5124	0.04573168
28	0xbd891cf1	-0.06694973
29	0x3d09cbb4	0.033641532
30	0x3d054878	0.032539815
31	0xbd6bd767	-0.05757847
32	0xbbee5cb2	-0.0072742337
33	0xbcaf2d38	-0.021383867
34	0xbd6b6046	-0.05746486
35	0xbcd1f1b0	-0.02562794
36	0xbd46b74e	-0.048514657
37	0x3b6d94f8	0.0036252122
38	0xbd7247c6	-0.05915048
39	0xbd3d596a	-0.04622785
40	0x3d372719	0.04471502
41	0x3d09a25d	0.033602107
42	0x3d32572f	0.043540176
43	0x3d115915	0.035485346
44	0x3d2d9741	0.042380575
45	0x3c0d47ac	0.008623045
46	0x3d43cc7f	0.047802445
47	0xbd480b2f	-0.04883879
48	0xbd3e02c0	-0.04638934
49	0xbd73fe7b	-0.059568863
50	0x3bd97686	0.0066364435
51	0x3d38b700	0.045096397
52	0x3c27655e	0.010217039
53	0xbcedbf83	-0.029021984
54	0xbd923157	-0.07138317
55	0xbd20172f	-0.03908461
56	0xb960a416	-0.00021423431
57	0xbd319431	-0.043354217
58	0x3d1458cc	0.036217496
59	0xbcff7404	-0.03118325
60	0xbca414d0	-0.020029455
61	0x3c752c08	0.014964111
62	0x3cf356ed	0.029704535
63	0xbd1befd9	-0.038070533
64	0xbce4d273	-0.027932381
65	0x3baae865	0.005215692
66	0x3c3503f9	0.01104831
67	0xbb24ad5b	-0.0025127742
68	0x3c3702bf	0.011170088
69	0xbc0a1416	-0.00842764
70	0x3d3e9a7d	0.04653405
71	0xbbf89766	-0.0075864075
72	0x3c189add	0.009314266
73	0xbd7eff19	-0.062255
74	0xbcabb9f3	-0.020962691
75	0x3c85a248	0.016312733
76	0x3d5a0feb	0.053237837
77	0xbb63940e	-0.0034725699
78	0xbc805ca7	-0.01566918
79	0x3d3b08f2	0.045662828
80	0xbc950cb2	-0.01819453
81	0xbc50fab1	-0.012755082
82	0xbd3da06f	-0.04629558
83	0xba3c0832	-0.0007172852
84	0x3d229ab6	0.039698325
85	0x3d884302	0.06653406
86	0xbcea440d	-0.028596902
87	0x3ce7f3a3	0.028314417
88	0xbc83457b	-0.016024342
89	0xba90177b	-0.0010993326
90	0x3d58b922	0.05291093
91	0xbd0a96de	-0.033835284
92	0x3d22aa28	0.039713055
93	0x3d3d9852	0.046287842
94	0xbc568635	-0.013093521
95	0xbd759414	-0.05995567
96	0x3c017dae	0.0079034995
97	0xbc7d4fbf	-0.0154609075
98	0x3c317bea	0.010832766
99	0x3cd9f8ab	0.026607832
100	0x3b38c120	0.0028191283
101	0x3c983e3d	0.018584365
102	0xbc41fac6	-0.011839574
103	0x3d812bf7	0.06307214
104	0xbd2c16d3	-0.042013954
105	0xbbb993eb	-0.005663385
106	0xbc8ed08b	-0.017433425
107	0x3d466ce9	0.04844371
108	0xbd08c89f	-0.033394452
109	0xbca4bd55	-0.020109812
110	0xbc18038e	-0.009278191
111	0xbbdb0ac6	-0.006684634
112	0xb94271ca	-0.00018543671
113	0xbb4a7b02	-0.0030896072
114	0x3cbdaf91	0.023155006
115	0xbd1c6bc3	-0.038188707
116	0xbc5a6cc3	-0.013331595
117	0x3c2087fa	0.009798044
118	0x3d0ccce5	0.03437509
119	0xbd3cf250	-0.046129525
120	0xbd8286ed	-0.06373391
121	0xbd7991fd	-0.06093024
122	0x3b1ab0c2	0.002360389
123	0x3d30f03b	0.04319785
124	0x3d49c486	0.049259685
125	0x3bc3f01c	0.005979551
126	0xbd32f513	-0.043690752
127	0xbb534f64	-0.0032243365
128	0x3d00a267	0.03140488
129	0xbd8ad99e	-0.067797884
130	0x3b1cfa64	0.0023952955
131	0x3a60f04d	0.00085807295
132	0x3d509c83	0.05093051
133	0xbd24d9c8	-0.040246755
134	0x3d31d141	0.04341245
135	0xbd370d15	-0.04469021
136	0x3cd5be73	0.02609179
137	0xbd81ca1d	-0.06337378
138	0xbc008b07	-0.007845647
139	0xbd90fed5	-0.07079855
140	0xbcae1374	-0.02124951
141	0x3dac609b	0.084168635
142	0x3d2368ce	0.03989487
143	0xbd7dbbe8	-0.06194678
144	0xbd870cdc	-0.065942496
145	0x3ca82a2a	0.020527918
146	0xbb306e6a	-0.002692128
147	0xbd958641	-0.073009975
148	0xbc9a4cf9	-0.018835532
149	0x3d07dfc0	0.03317237
150	0xbd887f42	-0.066648975
151	0xbd5fb01f	-0.05461132
152	0x3c861d5f	0.016371427
153	0xbb0e267c	-0.002169042
154	0x3bb693e0	0.0055718273
155	0x3b1b3f98	0.0023689028
156	0x3d0f2861	0.034950618
157	0x3d4d40f7	0.050110783
158	0xbd168a30	-0.03675288
159	0x3c50a122	0.01273373
160	0x3bbe0027	0.005798358
161	0x3c475e68	0.012168504
162	0xbdb3e8d1	-0.087846406
163	0xbc809488	-0.015695825
164	0xbba59abd	-0.0050538466
165	0xbc1ca3eb	-0.009560565
166	0xbc980688	-0.018557802
167	0x3cb3bac5	0.021939645
168	0xbcaf3c6b	-0.021391114
169	0xbd0b20a7	-0.033966687
170	0xbcd22042	-0.025650147
171	0xbd80ae8a	-0.06283291
172	0xbcc3b374	-0.02388928
173	0x3a5a052f	0.00083168125
174	0x3cad4e1d	0.021155411
175	0xbc1a386e	-0.009412868
176	0xbcdd1b42	-0.026990537
177	0x3c5e48e4	0.013567183
178	0x3c3bd987	0.011465437
179	0x3c38ebbd	0.011286673
180	0x3b5daeaa	0.0033826032
181	0xbd22c8fd	-0.03974246
182	0x3aca28ee	0.0015423575
183	0xbd79072f	-0.060797866
184	0x3d6f6f7f	0.05845594
185	0x3d37bf7b	0.044860344
186	0x3a0e60e1	0.0005431306
187	0x3d09f063	0.033676516
188	0xbcf325b5	-0.029681066
189	0x3d190cd5	0.037365753
190	0xbd764137	-0.060120787
191	0x3d16d252	0.03682167
192	0xbc6787e7	-0.014131523
193	0x3d3aab2b	0.045573395
194	0x3d0b85c1	0.034063105
195	0xbcd6c20d	-0.026215577
196	0xbce1ed92	-0.027579103
197	0xbd152134	-0.036408618
198	0xbcad6429	-0.021165924
199	0xbc82a804	-0.015949257
200	0x3d20de6e	0.039274625
201	0xbba71200	-0.0050985813
202	0x3d50ede5	0.051008124
203	0x3d5a89be	0.053354017
204	0x3c5edc2f	0.013602301
205	0xbd661400	-0.056171417
206	0x3d0a864e	0.03381949
207	0xbb66851c	-0.0035174554
208	0x3cd769f3	0.026295638
209	0x3c95b778	0.018275961
210	0x3ccd2b9c	0.025045209
211	0x3d6529d5	0.055948097
212	0x3cddf1ef	0.027092902
213	0x3d20c492	0.039249964
214	0xbd895e79	-0.06707472
215	0x3a7985d5	0.0009518539
216	0xba89954e	-0.0010496767
217	0xbc2e0490	-0.010621205
218	0x3c2c0a8c	0.010500561
219	0x3bd378b8	0.0064536
220	0x3d444b73	0.047923516
221	0x3ce585f6	0.02801798
222	0xbd1f5442	-0.038898714
223	0x3d268075	0.04064985
224	0x3ca0e9be	0.019642707
225	0xbc0b4dca	-0.008502433
226	0xbd43617f	-0.0477004
227	0x3ccf939d	0.025338942
228	0x3c727085	0.014797335
229	0x3cc33c11	0.023832353
230	0x3cd46370	0.025926322
231	0xbd01bc77	-0.031673875
232	0x3c17f0e0	0.009273738
233	0x3cc94b2b	0.024571976
234	0x3d2f2bf2	0.04276652
235	0xbb951729	-0.00454988
236	0xbd32e125	-0.043671746
237	0x3d153b57	0.036433544
238	0xbd43e66e	-0.047827177
239	0x3bf3964e	0.007433689
240	0x3d06ea3a	0.03293822
241	0xbd017b21	-0.031611566
242	0xbce27fdd	-0.02764886
243	0xbd322bf1	-0.043498937
244	0xbb579bf0	-0.0032899342
245	0x3bae7e92	0.005325147
246	0xbd835621	-0.06412912
247	0x3d60ebc0	0.05491233
248	0xbd86190c	-0.06547746
249	0xbd85504e	-0.065094575
250	0x3d59c202	0.053163536
251	0x3d3ccd8c	0.046094462
252	0xbb71442f	-0.0036814322
253	0x3b7b364e	0.0038331929
254	0xbd5eedc6	-0.054425977
255	0x3d86d1b4	0.065829664

linear2.bias f4 [3]
0	0x3c423552	0.011853533
1	0xbbef72b3	-0.0073073744
2	0x3d63eb57	0.05564436
