model/model.pth (torch, 16128 bytes, 4 tensors)

linear1.weight f4 [236, 11]
00000000: f4a4 693e fd59 94ba d558 ac3d ca6a 40be
00000010: ed0c a7bd d6dc 143d fb0c f5bd b59a 2f3e
00000020: 52a2 ad3d e03d 373e ddb6 133e 5b23 563e
00000030: dadc 41be 36d6 a3be 5d4c 2a3e e1ec 3c3d
00000040: 0818 ef3d 7f75 77be b755 0f3e 73ce cd3d
00000050: 4fcd adbc 2778 563e 6a2c 99be 5df8 2abe
00000060: 0536 0d3e 9b55 1fbe 1383 2c3e b412 933e
00000070: 5407 8b3e 50ce cc3c 45d1 33bd 3fa1 263e
00000080: ff3e efbd d54a 18be bafc fabd fcf5 6e3e
00000090: 681f 87be 404a c0bc 4ec9 1e3e 2af5 c6bd
000000a0: 01d1 76be 4333 9bbe e784 9c3e ee96 79be
000000b0: 027a bdbb b0ef b4bd 9431 673e 19be c53d
000000c0: 7c06 1e3d cf87 4e3e cb43 ecbd 9285 613e
000000d0: ece4 383e d2d0 1ebe 993f 203d 89b1 4a3e
000000e0: 9326 3abe c57c 22be 2baa f93d 023f 97be
000000f0: 6196 b238 d5f1 3a3e 0213 44be 0cb8 99be
00000100: ef2b 6dbe e623 0e3d bd9d 14be 0faf 07be
00000110: 00aa f9bd 774b 1ebe 3f7c 95be 6ea6 8cbd
00000120: 4cf0 803e 2a90 1bbe cc61 593e a5fb 60be
00000130: 84b0 bbbc a619 743e 1f78 743e 997f 87bd
00000140: eb9c 7bbd 6434 3d3c b7fb cbbd 34e9 86be
00000150: dd18 6f3e 8be0 1b3d 6870 e9bd 86d1 67be
00000160: e3bf a9bd f05d 383e 2230 6c3e c983 25be
00000170: b865 63be f9cf 3a3e 27b5 84be b245 98be
00000180: a429 243d 256c 4bbe 2b1c 29be f40c d23d
00000190: 565f bebd a338 03b9 f180 683e 0f74 7d3e
000001a0: 013c 963e 1c3e 85be 48c5 77be ccd1 893e
000001b0: a1a0 58be ee97 04be fa50 9fbd e62b 953e
000001c0: 16dc 10bc 3b28 e53d b3f4 ed3c 420f 7a3e
000001d0: 78c6 0fbe 8952 98bd 1b3f 563d dcc0 42bd
000001e0: 69a0 b13c 5b15 743b 1c7c 753e de13 96bb
000001f0: c0ef 3c3e e060 62be 08eb 6dbe 98f8 2bbe
00000200: ce4c 2b3e e49a 5abd fd6c bfbc 414b 303e
00000210: 6597 7e3e 2f00 4a3e c935 3c3e e3fb 2f3e
00000220: de8f 9b3e 0466 73be b230 e83d a8a7 d8bd
00000230: ba3e 5e3e a6c2 87bd 3ec6 7abb 47e6 593e
00000240: 1301 883e 4729 abbc 3b64 8e3e c5ad cabc
00000250: ba69 68be f628 853d 0e44 52bd e884 793e
00000260: a18a 80bc 3e03 a5bc 211c 1ebe b9d1 31be
00000270: b613 073e c9be 3bbe 029e 4bbe 22e2 99bd
00000280: bcf2 e83c eb42 6a3d a3f7 aabd 5310 aebc
00000290: 9a1f c93d 5361 8bbe bb51 87be 9aec 73be
000002a0: e662 263e f1da 46bd a4a3 58be 3d79 40be
000002b0: b481 8c3e 0b49 92be 6123 003b 2325 053e
000002c0: 88e9 95bd c658 253e cb02 45be b279 8cbe
000002d0: ced5 27be 9a0c db3d 8afa 90bc 0912 4abe
000002e0: 109a 673e 61f3 0a3e 944f 4fbe 5d72 643e
000002f0: 37ba 18bd 1c22 6d3e 0380 5bbe 9d52 6b3e
00000300: 18a1 89be 40bb 043e 522d 573e b9ae f03c
00000310: d03f 923c 4ff4 cbbd f2b2 633e 5f13 30bd
00000320: ac1f 6bbe 91f6 e83c df85 943d 94a7 ff3d
00000330: d0cb 943d fcca 34be 3b58 31bc 65a1 ad3d
00000340: 6753 103e 5bbf 64be 78ba ca3c c12e 8c3e
00000350: 03a4 4dbe 9fa9 8f3e a343 4ebe 4325 8fbd
00000360: 3537 ecbd 0512 503d 4804 833d f1af 46bc
00000370: 2468 76be bc28 b2bd 0b15 843e 8b23 793e
00000380: 2619 8fbe b6d1 31be 948a 8e3e 2bc3 243e
00000390: 8a68 3b3d 533a 75bc a3be 003e c5d7 db3c
000003a0: 5cee 1c3d 27e8 88bd 5643 da3d badd 2f3e
000003b0: 6d13 883d 4c0b 6abd 6c80 d73d 9aac 56be
000003c0: 1916 4dbe 6208 1f3e aa15 403c 5b5a 733e
000003d0: c83c c33d eb70 9abd c03d 3cbe efdf 6b3d
000003e0: a45e c8bd 3feb 8c3d 951b 9d3d 2ad5 033d
000003f0: de19 453d 3338 93be 2271 8e3e 3f62 1bbd
0.22816831 -0.0011318323 0.08415381 -0.18790737 -0.08156762 0.036343418 -0.119653665 0.1714886
0.08478226 0.17894697 0.14425226 0.20911925 -0.18931904 -0.31999367 0.16630693 0.046124343
0.116745055 -0.24165915 0.13997541 0.10049143 -0.021216063 0.20944272 -0.29916698 -0.16696306
0.13790138 -0.1556 0.16846876 0.28725207 0.27154028 0.025000721 -0.043900747 0.16272448
-0.116819374 -0.14872296 -0.12255235 0.23336023 -0.2639115 -0.023472905 0.15506479 -0.0971473
-0.24103166 -0.30312547 0.30570146 -0.24373981 -0.0057823667 -0.08834779 0.22577506 0.09655399
0.038580403 0.20168994 -0.11536368 0.2202361 0.18056077 -0.15509346 0.03912315 0.19794287
-0.18178777 -0.15867908 0.1219066 -0.2954026 8.515712e-05 0.18256314 -0.19147876 -0.3002323
-0.2316129 0.034702204 -0.14513297 -0.13250373 -0.12190628 -0.15458475 -0.29196355 -0.068676814
0.25183332 -0.15191713 0.21228713 -0.21970995 -0.022911318 0.23837909 0.23873948 -0.06616134
-0.061428946 0.011548135 -0.0996012 -0.26349795 0.23349328 0.038055938 -0.11398393 -0.2263852
-0.082885526 0.18004584 0.23065236 -0.16163553 -0.22206771 0.18243398 -0.25919458 -0.29740673
0.040078774 -0.19865473 -0.16514651 0.10256377 -0.09295528 -0.00012514232 0.22705437 0.24751304
0.29342654 -0.26023948 -0.2419635 0.26917875 -0.21155025 -0.12948582 -0.07779117 0.29135054
-0.008841535 0.11189314 0.029047346 0.24419883 -0.14040554 -0.07437617 0.052306276 -0.047547206
0.021682935 0.0037244174 0.23973125 -0.004580005 0.18450832 -0.22107267 -0.23234189 -0.1679405
0.16728517 -0.05337037 -0.0233674 0.17216207 0.2486244 0.19726633 0.18379892 0.17185931
0.303832 -0.23769385 0.11337413 -0.10578853 0.21703616 -0.06628923 -0.0038265134 0.2127925
0.2656332 -0.020893706 0.27810845 -0.024741063 -0.22696581 0.06501953 -0.051334433 0.24367106
-0.015691103 -0.020143148 -0.15440418 -0.17365159 0.13191113 -0.18334498 -0.19884494 -0.075138345
0.028436057 0.057192724 -0.08348014 -0.021248018 0.09820481 -0.2722269 -0.26429543 -0.23820725
0.16248664 -0.048548643 -0.21156174 -0.18796249 0.27442706 -0.28571352 0.0019552337 0.13002448
-0.07319933 0.16147146 -0.19239347 -0.27436596 -0.16390154 0.10695763 -0.017697591 -0.19733442
0.22617364 0.13569404 -0.202452 0.22309251 -0.037286963 0.23157543 -0.21435551 0.22980733
-0.26880717 0.12962055 0.21013382 0.02938019 0.017852694 -0.099587075 0.22236231 -0.042987224
-0.229613 0.028437885 0.072520964 0.12483135 0.07265437 -0.17655557 -0.010824258 0.08478049
0.14094315 -0.22338621 0.024747118 0.2737942 -0.20082097 0.28059098 -0.20142989 -0.06989529
-0.115339674 0.050798435 0.06397301 -0.012126909 -0.24063164 -0.08699176 0.25797305 0.24329965
-0.27948874 -0.17365155 0.27840102 0.16090076 0.045753993 -0.014967519 0.12572722 0.026836285
0.038313255 -0.066849045 0.106573746 0.17174426 0.0664433 -0.05713968 0.105225414 -0.2096428
-0.20027961 0.15530542 0.011723915 0.23764937 0.095330775 -0.07541069 -0.18382931 0.057586607
-0.09783676 0.06880807 0.076712765 0.03218571 0.048120372 -0.28753814 0.27820688 -0.03793549

linear1.bias f4 [236]
00000000: a757 18be 4837 6d3c 4624 4ebe de33 32be
00000010: a4d0 2bbe 72ca 32be 8e78 acbe d9b6 233e
00000020: 7903 88be cbb0 763e 0b01 5bbe 9b27 41bb
00000030: a007 353e 40ad 4bbe 45e1 183b 1d55 8ebe
00000040: 9f12 783e e1c2 09bd 299e 5abe 1757 323e
00000050: 052a 9ebd fd41 283e 8ee0 9c3d 1d8a 59be
00000060: 8c2a 81be 423f 9d3e 5dfc 173d dea1 2e3e
00000070: f75f 21be 4d44 8abe 9898 623d 9007 ecbc
00000080: c03e 243e 0fa6 5c3d edf0 633e bc3b ad3e
00000090: a2cf 37be 4f24 c23c 05f5 9cbc 7fe8 1ebe
000000a0: 6777 80be 9333 673e dc55 8ebe 2c46 93bc
000000b0: 0b53 863e e38c 253d 72c8 4abe 0aed 48bd
000000c0: c90f 5c3d 4408 413e 1d4d 84be 13e4 893e
000000d0: 8d69 303e 0ed8 513e 84da 033d 76b4 c93d
000000e0: 6591 863e 6d8b 413e ff66 c23d 65a8 c63a
000000f0: 94c1 a0bd c74d 103e 057a 3bbd 6f86 923e
00000100: c2c6 36be 2d04 f83d 4d18 283e d742 e83d
00000110: f15f ffbd 9bb7 42be 0978 1fbe e29e 8bbc
00000120: 16b4 0cbd 2040 7bbe d69c 133e 2691 19be
00000130: 3b9a 403e 95b0 46bc 6a8c eebd 4d73 e8bc
00000140: 0f68 ff3d e277 0d3e 8d06 90be c9b8 45bd
00000150: cdcc 643e 6565 573e 7c16 0a3e 8118 913e
00000160: e3b0 65be 5fcc be39 8d5f aebc 8f89 33be
00000170: b022 d1bd 5da0 343e 1181 083e 53b6 cb3d
00000180: f94d 493e c492 2d3e 979b 4ebe fa42 933d
00000190: 1cec 213d 817d bdbc e5ee 813e 051f 77bd
000001a0: 8004 f2bd f9a4 00bd f16c 1abe 8f30 f3bd
000001b0: 3474 44be d884 a0be 694b 82be d397 4abe
000001c0: 2284 10be b650 413e 1174 d8bd be2f 1d3e
000001d0: f599 853e 1406 483d 9ccf b33d f53b 133e
000001e0: 5583 4bbd b243 20be e59d 85be 4836 163e
000001f0: 9069 2b3e 8cc0 cbbd cbbc 37bd 014c 7c3e
00000200: fd4d 623e 0491 f93d a56a 063e b158 913d
00000210: 1efc 3cbe fbcf 1f3e 859f 85bd 5363 ffbc
00000220: 9d05 8abe 7413 e7bd 2cdd bfbd 6b29 7abe
00000230: 9a4f 43be bd07 61be b405 2abe 40db 8f3e
00000240: d959 8a3e 1e3c de3d 3620 93be 3099 63bd
00000250: 3e05 483e 0214 46be 28d6 8a3d 4f0a 7cbe
00000260: e62c 2fbe db75 83be 3751 863e bc1f 283e
00000270: 43ba 963e ce06 50be 2569 59be 30a9 55be
00000280: e1d8 57bd 917b b43d de53 2f3e eff8 e2bd
00000290: 9fbc 2cbd a1d0 23bd bf8d 823e 500d aa3e
000002a0: 4867 40bd 4b59 28be 8102 763e f288 aabe
000002b0: 65bf 4dbd 5778 d5bd a1c6 dfbd 9408 ee3d
000002c0: ffaa d7bc ad73 433e a615 443e 6157 a8bc
000002d0: 3c08 1e3e 0da4 793e 7968 fb3d 2d23 1cbe
000002e0: b13d a8bc 10d0 7ebe e4a5 43be 5c2c 82be
000002f0: 5a67 813e 45ff 313e 3338 823b f9cf 01be
00000300: 3bf3 41be 028f 3d3e e461 3b3e 2474 60bd
00000310: ba48 8ebe b28a 663e 38c9 303e 130d f43d
00000320: 75d0 6d3e 685d 4abe 8e5e 12bc 3d44 7b3e
00000330: db60 83be 8471 533e 971b 8a3d b9d3 a6bd
00000340: 7750 ccbd e3d6 67be a3ea 68be d74f 76be
00000350: bcc5 a5bb 6f0b d7bd 5984 abbe 0369 c4bc
00000360: 1447 c4bc 5d8f 44be 3184 34be 9b70 d2bd
00000370: 4b39 41bd 955f 65be 466b fe3d 36e6 8dbe
00000380: a068 6e3d d703 b0bd 9b8d 88be 44ad 66bd
00000390: 16b9 2c3e 1bf3 5a3e 097a 2e3e dd46 203e
000003a0: 3650 39be 47ef 913e a581 4cbe d1c0 063e
-0.14877187 0.014478512 -0.20131025 -0.17402598 -0.16778809 -0.1746004 -0.33685726 0.1598772
-0.2656515 0.24090879 -0.21387117 -0.002947307 0.1767869 -0.19890308 0.002332763 -0.2779931
0.24225853 -0.033633117 -0.21349396 0.17416035 -0.07722858 0.16431423 0.07660018 -0.21244092
-0.25227773 0.30712324 0.037105907 0.17053935 -0.15759264 -0.27005234 0.055321306 -0.0288122
0.16039562 0.053869303 0.22259875 0.33834636 -0.179503 0.023698954 -0.019159803 -0.15518378
-0.25091097 0.22578268 -0.2779988 -0.017977796 0.26235232 0.040417563 -0.19803026 -0.049054183
0.05372599 0.1885081 -0.25840083 0.2693182 0.17227764 0.20492575 0.032190815 0.09848873
0.26282802 0.18900843 0.09492301 0.0015156387 -0.07849422 0.1409217 -0.045770664 0.2861819
-0.17849258 0.121101715 0.1641552 0.11340874 -0.12469471 -0.19015352 -0.15573134 -0.017043535
-0.03435143 -0.2453618 0.14415297 -0.14996776 0.18808834 -0.012127061 -0.116478756 -0.028375292
0.124710195 0.13815263 -0.28129998 -0.048271928 0.2234375 0.21034773 0.1348514 0.28339007
-0.22430758 0.00036391892 -0.021285797 -0.17532943 -0.10211694 0.17639299 0.13330485 0.09946885
0.1965865 0.16950518 -0.2017654 0.07190509 0.039531812 -0.023131134 0.25377575 -0.060332317
-0.118172646 -0.03140733 -0.1508062 -0.11874496 -0.19184953 -0.31351352 -0.25448158 -0.19784479
-0.14112905 0.18878445 -0.10569013 0.15350243 0.26094022 0.04883392 0.08779833 0.1437834
-0.049685795 -0.15650824 -0.26097026 0.14669144 0.16739488 -0.09948835 -0.04485778 0.24638368
0.22100063 0.12185863 0.13126619 0.07096995 -0.1845555 0.15606682 -0.065245666 -0.031175291
-0.26957408 -0.11283007 -0.09368357 -0.24429862 -0.19073334 -0.21975608 -0.16603738 0.28096962
0.27021673 0.1085131 -0.28735512 -0.055566013 0.1953325 -0.1934357 0.06779128 -0.24613307
-0.17106971 -0.25675854 0.26233837 0.16418356 0.2943898 -0.20315096 -0.21231516 -0.20865321
-0.052697066 0.08812631 0.17121837 -0.110826366 -0.04217207 -0.039993886 0.2549877 0.33213282
-0.046973497 -0.16440313 0.24024393 -0.33307606 -0.050231356 -0.10423344 -0.10926557 0.1162273
-0.026326654 0.19087096 0.19148883 -0.020549478 0.15432829 0.24378987 0.12275786 -0.15247793
-0.02053723 -0.24884057 -0.19106251 -0.2542447 0.25274163 0.17382534 0.0039739846 -0.12676992
-0.18940441 0.18511584 0.18299061 -0.05479826 -0.2778986 0.22513846 0.17264259 0.11916556
0.23224051 -0.19762194 -0.008933676 0.2453775 -0.25659832 0.20648772 0.067435436 -0.08145852
-0.09976285 -0.22640567 -0.22745757 -0.24053894 -0.005058972 -0.10500228 -0.3349941 -0.023975855
-0.023959674 -0.19195314 -0.17628552 -0.10275384 -0.04717378 -0.22399743 0.124228045 -0.277147
0.058205247 -0.085944824 -0.26670536 -0.056317583 0.1686748 0.213818 0.1703874 0.15652032
-0.18097004 0.28502867 -0.1997133 0.13159491

linear2.weight f4 [3, 236]
00000000: 449d 223c 5dc1 ba3c ee24 793c 8ad0 23bc
00000010: 4d21 3b3c bc4e ac3c ecac 37bb 95d2 9dbd
00000020: a9fb 4abd 7330 69bc f468 ce3c 04f2 8d3c
00000030: d2ec 6cbc c8b8 423d 4c23 3bbd d8ff c93c
00000040: 277c 333c acab bdbb d102 c7bc 312f 2cbd
00000050: e70e bdbd 2976 0dbd 4e76 223b d407 ffbb
00000060: 8e0a a8bc f0ed 7fbd bacb b53c 566e 4c3d
00000070: abcf 333d 4af0 a43c 0455 80bd 5e73 9abd
00000080: 3976 bfbd a2ba aabd 00ea 95bd 4564 86bc
00000090: 0560 0b3c ff75 efbc e92d 48bd 7879 013d
000000a0: b6b3 213d 776c 8bbd b27a 3abd b49e 7dbd
000000b0: 0408 2ebc bedc 8fbc e42b 90bd 354a 59bc
000000c0: a196 60bc f89a 0abd 6212 4fbc d135 4ebd
000000d0: e6bc b0bc 1d48 b8bc 702a 153d 6623 89bd
000000e0: 5273 4abd 2544 29bc 03ae 903c 07f5 7bbd
000000f0: 243e 12bd f642 04bd 2328 5bbc b82c e13c
00000100: 4f89 a2bd 3063 b93c b732 3ebd 9887 6ebd
00000110: caff 31bb 80f7 25bd a950 bbbc ea40 56bd
00000120: 9c9c bfbd 3b18 1fbd 8dbf a4bd 39b9 4bbc
00000130: 8d32 013d 14f9 513d 7e83 723d 0953 9f3c
00000140: 6573 40bc 4f71 b8bc e3fc 3abc 9a3c 8fbc
00000150: 8060 30bd ec64 c33b 4fc7 dabb 147f 2dbd
00000160: d851 48bc d29e 3cbd 49ca 1b3d 6e16 27ba
00000170: 9368 183a 8563 c73c 7650 64bd 4af2 0ebd
00000180: 7769 a93b 406c b3bd 2a59 d8bc 2e17 16bd
00000190: 9651 4ebb 1658 84bd da05 23bd 4e59 21bc
000001a0: fc4a 933c 2f6f b93d e5ef 493c 5d64 f83b
000001b0: 843f 673d 25c3 233c f1bb 78bd 9c8e 9bbd
000001c0: dec8 22bd 861a adbc 9659 a839 475c cabd
000001d0: 9930 413c a4ba 723c 9ad8 383c 1797 47bc
000001e0: f48c f33c 4396 febc 69a2 0b3d 3274 c2bc
000001f0: 8287 abbc d7fa 8bbd a06c 673d 0b84 2dbd
00000200: 73e0 d93c e1bd 8abd 3ea8 333a 10a7 483c
00000210: 05dd e1bb d287 8bbc 3e9a 273c e1eb 7bbc
00000220: 30ee 09bd 2414 083d 54e1 81bd 848f b5bd
00000230: 7ec4 a6bd 63af 81bb fbe1 2cbd 003c b8bd
00000240: ccab 92bb eadf 973c ea7e b43c bb53 c1bd
00000250: 6429 1bbd dc24 e3bc 914d 89bc b8c1 323d
00000260: 3af7 b63b ccff 51bd d890 a8bd 1429 69bc
00000270: e75b 81bd 4335 fabc d209 80bd cbf9 a5bd
00000280: 1342 1c3c 6401 07bd db8e 17bd 4382 8d3d
00000290: 33e4 2abd 68b8 99bc cfbd 17bc bc91 9fbd
000002a0: 8c88 d83c f8b6 e5bc 0c48 8ebd c519 243d
000002b0: 0f3f 1f3c 3ebb 8bbc a4f9 1a3d 883a 1f3d
000002c0: 0146 22bc 194b 80bd b47e 3fbc 8ea6 f93c
000002d0: e6bf 3f3c 1a7b 6dbd e0cd 533c de36 aa3c
000002e0: 6e19 163c bcd3 fa3d a973 793d fe66 053c
000002f0: 2f60 e13c 698c f33c f506 bbbc 2021 00bd
00000300: c518 17bc d124 6bbd 99bc ddbc 2e16 c73d
00000310: f68f 2c3c 2624 50bd c38a 9abc 3e80 b8bc
00000320: 6fae 53bd 9b71 08bd 77e9 9fbd 3beb 6c3c
00000330: 2a97 57bd 5147 88bc cb81 08bd 3fa7 003d
00000340: 9d41 0ebd 4e09 a23d ba4f e63c b3d0 843d
00000350: e1da 6abd 4746 4b3d f874 883c c820 383d
00000360: 7a8d 18bd c75d 40bd e659 59bc 141d cbbc
00000370: 80c8 0abd 3177 963c c559 90bc 208e 0fbd
00000380: 31a3 2abd c093 aabd 5cf8 3bbd 3fdf 6fbd
00000390: 2bee 79bc 389b efbc 4831 5fbd 2bf8 debc
000003a0: b509 e03c ef3b cfbd 10df d83d c982 5fbd
000003b0: d1f7 1bbd 755b cb3b 0537 8f3c 15bb c83c
000003c0: 1d6c 1c3b 92c6 bebc a804 fcbc 2153 5cbd
000003d0: 9e4d fcbc bc18 a13c 7c80 c5bc 4774 0abd
000003e0: 8350 9abd bd7d 87bd 8da9 a23c bcef 7f3c
000003f0: aed6 37bd ca4d e7bc 7403 603c bb5d b2bc
0.00992519 0.02279728 0.015206559 -0.00999845 0.011421514 0.021033637 -0.0028026653 -0.07706181
-0.049556408 -0.014232743 0.02519653 0.017327316 -0.014460759 0.047539502 -0.04568796 0.024658129
0.010954893 -0.005788287 -0.024293335 -0.042037193 -0.09231358 -0.034536514 0.0024789753 -0.0077829156
-0.020512845 -0.062482774 0.022191871 0.049909912 0.04389922 0.02013411 -0.062662154 -0.07541536
-0.09348721 -0.08336379 -0.073200226 -0.016405234 0.00850678 -0.02923107 -0.04887191 0.031609982
0.039478026 -0.068077974 -0.045527168 -0.06191893 -0.010622028 -0.017561313 -0.070396215 -0.013262321
-0.013707788 -0.033839196 -0.01263866 -0.050344292 -0.021574449 -0.022495324 0.036417425 -0.06696205
-0.049426384 -0.010331188 0.0176611 -0.061512973 -0.035703793 -0.03229042 -0.013376269 0.027487144
-0.07936346 0.022630304 -0.046435084 -0.05823478 -0.0027160519 -0.040519238 -0.02286561 -0.052308
-0.09356043 -0.038841467 -0.08044348 -0.012434297 0.03154235 0.05126293 0.059207432 0.019448774
-0.011746262 -0.022514967 -0.011412832 -0.017484952 -0.04306078 0.0059629586 -0.0066765915 -0.04235752
-0.012226544 -0.0460499 0.03803471 -0.0006373887 0.00058139226 0.024339447 -0.055740796 -0.034899034
0.005170043 -0.087608814 -0.026409704 -0.0366432 -0.0031481734 -0.064621136 -0.039800502 -0.009847952
0.017980091 0.0905441 0.012325262 0.0075803236 0.056457058 0.009995257 -0.06072611 -0.0759556
-0.039742343 -0.021130811 0.00032110204 -0.09880882 0.011791372 0.014815006 0.011282111 -0.012182019
0.029730298 -0.03107751 0.034090433 -0.023737047 -0.020938639 -0.06834953 0.056500077 -0.042362254
0.026596284 -0.06774498 0.0006853378 0.012246862 -0.0068928027 -0.017032538 0.010229645 -0.015376062
-0.03367442 0.033222333 -0.06341806 -0.08865264 -0.08142947 -0.0039576753 -0.0422077 -0.08995819
-0.004476046 0.018539388 0.022033174 -0.094397984 -0.03788127 -0.027727537 -0.01676062 0.043641776
0.005583671 -0.051269338 -0.08230752 -0.014230985 -0.06316357 -0.030542975 -0.06251873 -0.08104285
0.009537238 -0.03296031 -0.037001472 0.06909611 -0.041721534 -0.01876469 -0.0092615625 -0.077914685
0.026432298 -0.028041348 -0.069473356 0.04006364 0.009719624 -0.017057057 0.037835732 0.03887418
-0.009904386 -0.06264324 -0.011687923 0.030474927 0.011703467 -0.057978727 0.012927502 0.020778116
0.009161336 0.122474164 0.060901318 0.008142231 0.027511684 0.029730039 -0.022830466 -0.03128159
-0.009222214 -0.057408158 -0.02706747 0.09721027 0.01053237 -0.050815724 -0.018864995 -0.022522088
-0.051680025 -0.033311468 -0.07808202 0.01446038 -0.052634396 -0.016635569 -0.033326905 0.0314095
-0.034730542 0.07911931 0.028114188 0.06485119 -0.057337645 0.04962757 0.016657338 0.044953138
-0.037244298 -0.046964433 -0.013266062 -0.024794139 -0.033882618 0.018367382 -0.01762093 -0.03504765
-0.041659538 -0.08328962 -0.04589115 -0.058562513 -0.015254538 -0.029248819 -0.054490358 -0.027217945
0.027348379 -0.10118853 0.10589421 -0.054568086 -0.038078133 0.006205971 0.01748229 0.02450327
0.0023868151 -0.023288045 -0.030763939 -0.053790215 -0.03079873 0.019665115 -0.024109118 -0.033802297
-0.07534888 -0.066157795 0.019856239 0.015621122 -0.04488247 -0.028235335 0.013672698 -0.02177321

linear2.bias f4 [3]
00000000: 4455 003c 0ea9 10bc 9b32 9abd
0.007832829 -0.008829368 -0.075291835
